v0.0.1
%38 = fn (%tensor.1:0: Tensor[(3, 512, 7), int64], %TapasModel_7/TapasEmbeddings_27/aten_mul/Const:0: Tensor[(1,), int64], %TapasModel_7/TapasEmbeddings_27/aten_arange/range: Tensor[(3,), int32], %TapasModel_7/TapasEmbeddings_27/aten_mul_2/Const:0: Tensor[(1,), int64]) -> (Tensor[(3, 512), int64], Tensor[(1536,), int64]) {
  %0 = strided_slice(%tensor.1:0, framework_op_name="strided_slice0", output_tensors_name=["strided_slice0:0"], input_tensors_name=[], framework_op_debug_info="TapasModel_7/TapasEmbeddings_27/aten_slice_6/StridedSlice", begin=[0, 0, 0], end=[3, 512, 7], strides=[1, 1, 1]) // ty=Tensor[(3, 512, 7), int64]
  %1 = reshape(%0, framework_op_name="TapasModel_7/TapasEmbeddings_27/aten_slice_6/StridedSlice", output_tensors_name=["TapasModel_7/TapasEmbeddings_27/aten_slice_6/StridedSlice:0"], input_tensors_name=[], framework_op_debug_info="TapasModel_7/TapasEmbeddings_27/aten_slice_6/StridedSlice", newshape=[3, 512, 7]) // ty=Tensor[(3, 512, 7), int64]
  %2 = strided_slice(%1, framework_op_name="strided_slice1", output_tensors_name=["strided_slice1:0"], input_tensors_name=[], framework_op_debug_info="TapasModel_7/TapasEmbeddings_27/aten_slice_7/StridedSlice", begin=[0, 0, 0], end=[3, 512, 7], strides=[1, 1, 1]) // ty=Tensor[(3, 512, 7), int64]
  %3 = reshape(%2, framework_op_name="TapasModel_7/TapasEmbeddings_27/aten_slice_7/StridedSlice", output_tensors_name=["TapasModel_7/TapasEmbeddings_27/aten_slice_7/StridedSlice:0"], input_tensors_name=[], framework_op_debug_info="TapasModel_7/TapasEmbeddings_27/aten_slice_7/StridedSlice", newshape=[3, 512, 7]) // ty=Tensor[(3, 512, 7), int64]
  %4 = strided_slice(%3, framework_op_name="strided_slice2", output_tensors_name=["strided_slice2:0"], input_tensors_name=[], framework_op_debug_info="TapasModel_7/TapasEmbeddings_27/aten_slice_8/StridedSlice", begin=[0, 0, 0], end=[3, 512, 7], strides=[1, 1, 1]) // ty=Tensor[(3, 512, 7), int64]
  %5 = reshape(%4, framework_op_name="TapasModel_7/TapasEmbeddings_27/aten_slice_8/StridedSlice", output_tensors_name=["TapasModel_7/TapasEmbeddings_27/aten_slice_8/StridedSlice:0"], input_tensors_name=[], framework_op_debug_info="TapasModel_7/TapasEmbeddings_27/aten_slice_8/StridedSlice", newshape=[3, 512, 7]) // ty=Tensor[(3, 512, 7), int64]
  %6 = strided_slice(%5, framework_op_name="strided_slice3", output_tensors_name=["strided_slice3:0"], input_tensors_name=[], framework_op_debug_info="TapasModel_7/TapasEmbeddings_27/aten_slice_9/StridedSlice", begin=[0, 0, 0], end=[3, 512, 7], strides=[1, 1, 1]) // ty=Tensor[(3, 512, 7), int64]
  %7 = reshape(%6, framework_op_name="TapasModel_7/TapasEmbeddings_27/aten_slice_9/StridedSlice", output_tensors_name=["TapasModel_7/TapasEmbeddings_27/aten_slice_9/StridedSlice:0"], input_tensors_name=[], framework_op_debug_info="TapasModel_7/TapasEmbeddings_27/aten_slice_9/StridedSlice", newshape=[3, 512, 7]) // ty=Tensor[(3, 512, 7), int64]
  %8 = strided_slice(%7, framework_op_name="strided_slice4", output_tensors_name=["strided_slice4:0"], input_tensors_name=[], framework_op_debug_info="TapasModel_7/TapasEmbeddings_27/aten_slice_10/StridedSlice", begin=[0, 0, 0], end=[3, 512, 7], strides=[1, 1, 1]) // ty=Tensor[(3, 512, 7), int64]
  %9 = reshape(%8, framework_op_name="TapasModel_7/TapasEmbeddings_27/aten_slice_10/StridedSlice", output_tensors_name=["TapasModel_7/TapasEmbeddings_27/aten_slice_10/StridedSlice:0"], input_tensors_name=[], framework_op_debug_info="TapasModel_7/TapasEmbeddings_27/aten_slice_10/StridedSlice", newshape=[3, 512, 7]) // ty=Tensor[(3, 512, 7), int64]
  %10 = strided_slice(%9, framework_op_name="strided_slice5", output_tensors_name=["strided_slice5:0"], input_tensors_name=[], framework_op_debug_info="TapasModel_7/TapasEmbeddings_27/aten_slice_11/StridedSlice", begin=[0, 0, 0], end=[3, 512, 7], strides=[1, 1, 1]) // ty=Tensor[(3, 512, 7), int64]
  %11 = reshape(%10, framework_op_name="TapasModel_7/TapasEmbeddings_27/aten_slice_11/StridedSlice", output_tensors_name=["TapasModel_7/TapasEmbeddings_27/aten_slice_11/StridedSlice:0"], input_tensors_name=[], framework_op_debug_info="TapasModel_7/TapasEmbeddings_27/aten_slice_11/StridedSlice", newshape=[3, 512, 7]) // ty=Tensor[(3, 512, 7), int64]
  %12 = strided_slice(%11, framework_op_name="TapasModel_7/TapasEmbeddings_27/aten_select_1/Slice", output_tensors_name=["TapasModel_7/TapasEmbeddings_27/aten_select_1/Slice:0"], input_tensors_name=[], framework_op_debug_info="TapasModel_7/TapasEmbeddings_27/aten_select_1/Slice", begin=[0, 0, 2], end=[3, 512, 3]) // ty=Tensor[(3, 512, 1), int64]
  %13 = reshape(%12, framework_op_name="TapasModel_7/TapasEmbeddings_27/aten_select_1/Reshape", output_tensors_name=["TapasModel_7/TapasEmbeddings_27/aten_select_1/Reshape:0"], input_tensors_name=[], framework_op_debug_info="TapasModel_7/TapasEmbeddings_27/aten_select_1/Reshape", newshape=[3, 512]) // ty=Tensor[(3, 512), int64]
  %14 = strided_slice(%tensor.1:0, framework_op_name="strided_slice6", output_tensors_name=["strided_slice6:0"], input_tensors_name=[], framework_op_debug_info="TapasModel_7/TapasEmbeddings_27/aten_slice/StridedSlice", begin=[0, 0, 0], end=[3, 512, 7], strides=[1, 1, 1]) // ty=Tensor[(3, 512, 7), int64]
  %15 = reshape(%14, framework_op_name="TapasModel_7/TapasEmbeddings_27/aten_slice/StridedSlice", output_tensors_name=["TapasModel_7/TapasEmbeddings_27/aten_slice/StridedSlice:0"], input_tensors_name=[], framework_op_debug_info="TapasModel_7/TapasEmbeddings_27/aten_slice/StridedSlice", newshape=[3, 512, 7]) // ty=Tensor[(3, 512, 7), int64]
  %16 = strided_slice(%15, framework_op_name="strided_slice7", output_tensors_name=["strided_slice7:0"], input_tensors_name=[], framework_op_debug_info="TapasModel_7/TapasEmbeddings_27/aten_slice_1/StridedSlice", begin=[0, 0, 0], end=[3, 512, 7], strides=[1, 1, 1]) // ty=Tensor[(3, 512, 7), int64]
  %17 = reshape(%16, framework_op_name="TapasModel_7/TapasEmbeddings_27/aten_slice_1/StridedSlice", output_tensors_name=["TapasModel_7/TapasEmbeddings_27/aten_slice_1/StridedSlice:0"], input_tensors_name=[], framework_op_debug_info="TapasModel_7/TapasEmbeddings_27/aten_slice_1/StridedSlice", newshape=[3, 512, 7]) // ty=Tensor[(3, 512, 7), int64]
  %18 = strided_slice(%17, framework_op_name="strided_slice8", output_tensors_name=["strided_slice8:0"], input_tensors_name=[], framework_op_debug_info="TapasModel_7/TapasEmbeddings_27/aten_slice_2/StridedSlice", begin=[0, 0, 0], end=[3, 512, 7], strides=[1, 1, 1]) // ty=Tensor[(3, 512, 7), int64]
  %19 = reshape(%18, framework_op_name="TapasModel_7/TapasEmbeddings_27/aten_slice_2/StridedSlice", output_tensors_name=["TapasModel_7/TapasEmbeddings_27/aten_slice_2/StridedSlice:0"], input_tensors_name=[], framework_op_debug_info="TapasModel_7/TapasEmbeddings_27/aten_slice_2/StridedSlice", newshape=[3, 512, 7]) // ty=Tensor[(3, 512, 7), int64]
  %20 = strided_slice(%19, framework_op_name="strided_slice9", output_tensors_name=["strided_slice9:0"], input_tensors_name=[], framework_op_debug_info="TapasModel_7/TapasEmbeddings_27/aten_slice_3/StridedSlice", begin=[0, 0, 0], end=[3, 512, 7], strides=[1, 1, 1]) // ty=Tensor[(3, 512, 7), int64]
  %21 = reshape(%20, framework_op_name="TapasModel_7/TapasEmbeddings_27/aten_slice_3/StridedSlice", output_tensors_name=["TapasModel_7/TapasEmbeddings_27/aten_slice_3/StridedSlice:0"], input_tensors_name=[], framework_op_debug_info="TapasModel_7/TapasEmbeddings_27/aten_slice_3/StridedSlice", newshape=[3, 512, 7]) // ty=Tensor[(3, 512, 7), int64]
  %22 = strided_slice(%21, framework_op_name="strided_slice10", output_tensors_name=["strided_slice10:0"], input_tensors_name=[], framework_op_debug_info="TapasModel_7/TapasEmbeddings_27/aten_slice_4/StridedSlice", begin=[0, 0, 0], end=[3, 512, 7], strides=[1, 1, 1]) // ty=Tensor[(3, 512, 7), int64]
  %23 = reshape(%22, framework_op_name="TapasModel_7/TapasEmbeddings_27/aten_slice_4/StridedSlice", output_tensors_name=["TapasModel_7/TapasEmbeddings_27/aten_slice_4/StridedSlice:0"], input_tensors_name=[], framework_op_debug_info="TapasModel_7/TapasEmbeddings_27/aten_slice_4/StridedSlice", newshape=[3, 512, 7]) // ty=Tensor[(3, 512, 7), int64]
  %24 = strided_slice(%23, framework_op_name="strided_slice11", output_tensors_name=["strided_slice11:0"], input_tensors_name=[], framework_op_debug_info="TapasModel_7/TapasEmbeddings_27/aten_slice_5/StridedSlice", begin=[0, 0, 0], end=[3, 512, 7], strides=[1, 1, 1]) // ty=Tensor[(3, 512, 7), int64]
  %25 = reshape(%24, framework_op_name="TapasModel_7/TapasEmbeddings_27/aten_slice_5/StridedSlice", output_tensors_name=["TapasModel_7/TapasEmbeddings_27/aten_slice_5/StridedSlice:0"], input_tensors_name=[], framework_op_debug_info="TapasModel_7/TapasEmbeddings_27/aten_slice_5/StridedSlice", newshape=[3, 512, 7]) // ty=Tensor[(3, 512, 7), int64]
  %26 = strided_slice(%25, framework_op_name="TapasModel_7/TapasEmbeddings_27/aten_select/Slice", output_tensors_name=["TapasModel_7/TapasEmbeddings_27/aten_select/Slice:0"], input_tensors_name=[], framework_op_debug_info="TapasModel_7/TapasEmbeddings_27/aten_select/Slice", begin=[0, 0, 1], end=[3, 512, 2]) // ty=Tensor[(3, 512, 1), int64]
  %27 = reshape(%26, framework_op_name="TapasModel_7/TapasEmbeddings_27/aten_select/Reshape", output_tensors_name=["TapasModel_7/TapasEmbeddings_27/aten_select/Reshape:0"], input_tensors_name=[], framework_op_debug_info="TapasModel_7/TapasEmbeddings_27/aten_select/Reshape", newshape=[3, 512]) // ty=Tensor[(3, 512), int64]
  %28 = multiply(%27, %TapasModel_7/TapasEmbeddings_27/aten_mul/Const:0, framework_op_name="TapasModel_7/TapasEmbeddings_27/aten_mul/mul", output_tensors_name=["TapasModel_7/TapasEmbeddings_27/aten_mul/mul:0"], input_tensors_name=[], framework_op_debug_info="TapasModel_7/TapasEmbeddings_27/aten_mul/mul", axis=0) // ty=Tensor[(3, 512), int64]
  %29 = add(%13, %28, framework_op_name="TapasModel_7/TapasEmbeddings_27/aten_add/add", output_tensors_name=["TapasModel_7/TapasEmbeddings_27/aten_add/add:0"], input_tensors_name=[], framework_op_debug_info="TapasModel_7/TapasEmbeddings_27/aten_add/add", axis=0) // ty=Tensor[(3, 512), int64]
  %30 = cast(%TapasModel_7/TapasEmbeddings_27/aten_arange/range, framework_op_name="TapasModel_7/TapasEmbeddings_27/aten_mul_2/Cast", output_tensors_name=["TapasModel_7/TapasEmbeddings_27/aten_mul_2/Cast:0"], input_tensors_name=[], framework_op_debug_info="TapasModel_7/TapasEmbeddings_27/aten_mul_2/Cast", dtype="int64") // ty=Tensor[(3,), int64]
  %31 = multiply(%30, %TapasModel_7/TapasEmbeddings_27/aten_mul_2/Const:0, framework_op_name="TapasModel_7/TapasEmbeddings_27/aten_mul_2/mul", output_tensors_name=["TapasModel_7/TapasEmbeddings_27/aten_mul_2/mul:0"], input_tensors_name=[], framework_op_debug_info="TapasModel_7/TapasEmbeddings_27/aten_mul_2/mul", axis=0) // ty=Tensor[(3,), int64]
  %32 = reshape(%31, framework_op_name="TapasModel_7/TapasEmbeddings_27/aten_view/Reshape", output_tensors_name=["TapasModel_7/TapasEmbeddings_27/aten_view/Reshape:0"], input_tensors_name=[], framework_op_debug_info="TapasModel_7/TapasEmbeddings_27/aten_view/Reshape", newshape=[3]) // ty=Tensor[(3,), int64]
  %33 = expand_dims(%32, framework_op_name="TapasModel_7/TapasEmbeddings_27/aten_unsqueeze/ExpandDims", output_tensors_name=["TapasModel_7/TapasEmbeddings_27/aten_unsqueeze/ExpandDims:0"], input_tensors_name=[], framework_op_debug_info="TapasModel_7/TapasEmbeddings_27/aten_unsqueeze/ExpandDims", axis=-1) // ty=Tensor[(3, 1), int64]
  %34 = broadcast_to(%33, framework_op_name="TapasModel_7/TapasEmbeddings_27/aten_add_1/BroadcastTo", output_tensors_name=["TapasModel_7/TapasEmbeddings_27/aten_add_1/BroadcastTo:0"], input_tensors_name=[], framework_op_debug_info="TapasModel_7/TapasEmbeddings_27/aten_add_1/BroadcastTo", shape=[3, 512]) // ty=Tensor[(3, 512), int64]
  %35 = add(%34, %29, framework_op_name="TapasModel_7/TapasEmbeddings_27/aten_add_1/add", output_tensors_name=["TapasModel_7/TapasEmbeddings_27/aten_add_1/add:0"], input_tensors_name=[], framework_op_debug_info="TapasModel_7/TapasEmbeddings_27/aten_add_1/add", axis=0) // ty=Tensor[(3, 512), int64]
  %36 = reshape(%35, framework_op_name="TapasModel_7/TapasEmbeddings_27/aten_view_1/Reshape", output_tensors_name=["TapasModel_7/TapasEmbeddings_27/aten_view_1/Reshape:0"], input_tensors_name=[], framework_op_debug_info="TapasModel_7/TapasEmbeddings_27/aten_view_1/Reshape", newshape=[-1]) // ty=Tensor[(1536,), int64]
  %37 = (%29, %36)
  %37
}
%38